models/0.35qutan.tflite (tflite, 991264 bytes, 108 tensors)

model/dense_1/BiasAdd/ReadVariableOp/resource f2 [4]
0	0xa32b	-0.014
1	0x9862	-0.00214
2	0x1717	0.001731
3	0x1f54	0.007156

model/dense/BiasAdd/ReadVariableOp/resource f2 [64]
0	0x250c	0.01971
1	0xa098	-0.00897
2	0x99ec	-0.002892
3	0x2168	0.01056
4	0x9dda	-0.005714
5	0x25d3	0.02275
6	0xa397	-0.014824
7	0xa2e6	-0.01347
8	0x2411	0.01588
9	0x2267	0.012505
10	0x9bd0	-0.003815
11	0x9d59	-0.005222
12	0xa399	-0.01484
13	0xa00b	-0.0079
14	0xa149	-0.01032
15	0x1835	0.002054
16	0x1a62	0.003117
17	0x211b	0.00997
18	0xa0b2	-0.00917
19	0xa200	-0.01172
20	0x9f57	-0.007168
21	0xa163	-0.01052
22	0xa104	-0.009796
23	0x990f	-0.00247
24	0x9c06	-0.00393
25	0x9461	-0.001069
26	0x2092	0.00893
27	0xa592	-0.02176
28	0x995c	-0.002617
29	0x12bc	0.000822
30	0xa409	-0.01576
31	0x0404	6.13e-05
32	0xa49e	-0.01804
33	0x9d7a	-0.00535
34	0xa658	-0.02478
35	0x9918	-0.002487
36	0x9992	-0.00272
37	0x1f0b	0.006878
38	0x1dbd	0.005604
39	0x155a	0.001307
40	0x9e31	-0.006046
41	0x218f	0.01086
42	0x224f	0.01232
43	0x9ed9	-0.006687
44	0xa438	-0.01648
45	0x24fb	0.01945
46	0xa224	-0.01199
47	0x0c6d	0.0002701
48	0x19de	0.002865
49	0xa49e	-0.01804
50	0x1d0e	0.004936
51	0x24c2	0.01859
52	0x1460	0.001068
53	0xa4c2	-0.01859
54	0x2283	0.01272
55	0xa3be	-0.01512
56	0x920f	-0.0007396
57	0x9f8a	-0.007362
58	0xa48a	-0.01773
59	0xa042	-0.008316
60	0x232a	0.01399
61	0xa446	-0.0167
62	0x9413	-0.000995
63	0x120c	0.000738

model/Conv_1_bn/FusedBatchNormV3 f2 [1280]
0	0xc5ef	-5.934
1	0xc666	-6.4
2	0xc618	-6.094
3	0xc635	-6.207
4	0xc60f	-6.06
5	0xc614	-6.08
6	0xc56e	-5.43
7	0xc5e2	-5.883
8	0xc58a	-5.54
9	0xc5a4	-5.64
10	0xc5e8	-5.906
11	0xc5b2	-5.695
12	0xc52b	-5.168
13	0xc60c	-6.047
14	0xc5f2	-5.945
15	0xc695	-6.582
16	0xc618	-6.094
17	0xc520	-5.125
18	0xc62c	-6.17
19	0xc65d	-6.363
20	0xc64d	-6.3
21	0xc698	-6.594
22	0xc5c2	-5.758
23	0xc5f8	-5.97
24	0xc639	-6.223
25	0xc67e	-6.492
26	0xc51d	-5.113
27	0xc68d	-6.55
28	0xc5ec	-5.92
29	0xc662	-6.383
30	0xc682	-6.508
31	0xc677	-6.465
32	0xc5ba	-5.727
33	0xc589	-5.535
34	0xc55c	-5.36
35	0xc5d9	-5.848
36	0xc5ac	-5.67
37	0xc6eb	-6.918
38	0xc691	-6.566
39	0xc679	-6.473
40	0xc638	-6.22
41	0xc60f	-6.06
42	0xc67f	-6.496
43	0xc595	-5.582
44	0xc644	-6.266
45	0xc5fe	-5.992
46	0xc5e0	-5.875
47	0xc604	-6.016
48	0xc686	-6.523
49	0xc6a9	-6.66
50	0xc5eb	-5.918
51	0xc61c	-6.11
52	0xc643	-6.26
53	0xc567	-5.402
54	0xc657	-6.34
55	0xc639	-6.223
56	0xc672	-6.445
57	0xc530	-5.188
58	0xc61a	-6.1
59	0xc605	-6.02
60	0xc5fc	-5.984
61	0xc5ee	-5.93
62	0xc578	-5.47
63	0xc620	-6.125
64	0xc525	-5.145
65	0xc5cb	-5.793
66	0xc5ff	-5.996
67	0xc5c4	-5.766
68	0xc5da	-5.85
69	0xc693	-6.574
70	0xc63a	-6.227
71	0xc5f1	-5.94
72	0xc5ce	-5.805
73	0xc678	-6.47
74	0xc631	-6.19
75	0xc633	-6.2
76	0xc670	-6.438
77	0xc686	-6.523
78	0xc604	-6.016
79	0xc5a8	-5.656
80	0xc615	-6.082
81	0xc669	-6.41
82	0xc5a6	-5.65
83	0xc60e	-6.055
84	0xc5c2	-5.758
85	0xc61d	-6.113
86	0xc61f	-6.12
87	0xc5b1	-5.69
88	0xc624	-6.14
89	0xc5fa	-5.977
90	0xc63b	-6.23
91	0xc625	-6.145
92	0xc623	-6.137
93	0xc669	-6.41
94	0xc609	-6.035
95	0xc600	-6.0
96	0xc641	-6.254
97	0xc664	-6.39
98	0xc62c	-6.17
99	0xc698	-6.594
100	0xc674	-6.453
101	0xc5fc	-5.984
102	0xc68e	-6.555
103	0xc615	-6.082
104	0xc648	-6.28
105	0xc64c	-6.297
106	0xc5a7	-5.652
107	0xc648	-6.28
108	0xc661	-6.38
109	0xc5e9	-5.91
110	0xc608	-6.03
111	0xc64b	-6.293
112	0xc5ee	-5.93
113	0xc679	-6.473
114	0xc5dd	-5.863
115	0xc573	-5.45
116	0xc5b7	-5.715
117	0xc5f4	-5.953
118	0xc6ac	-6.67
119	0xc5f1	-5.94
120	0xc5cc	-5.797
121	0xc657	-6.34
122	0xc695	-6.582
123	0xc5f1	-5.94
124	0xc653	-6.324
125	0xc5c4	-5.766
126	0xc5a7	-5.652
127	0xc5ce	-5.805
128	0xc5f9	-5.973
129	0xc5fd	-5.99
130	0xc616	-6.086
131	0xc534	-5.203
132	0xc5cf	-5.81
133	0xc59b	-5.605
134	0xc59f	-5.62
135	0xc59c	-5.61
136	0xc635	-6.207
137	0xc58e	-5.555
138	0xc685	-6.52
139	0xc5bf	-5.746
140	0xc638	-6.22
141	0xc634	-6.203
142	0xc6a7	-6.652
143	0xc59d	-5.613
144	0xc602	-6.008
145	0xc66a	-6.414
146	0xc5e5	-5.895
147	0xc66e	-6.43
148	0xc5d8	-5.844
149	0xc65c	-6.36
150	0xc59f	-5.62
151	0xc63b	-6.23
152	0xc66e	-6.43
153	0xc60a	-6.04
154	0xc617	-6.09
155	0xc5ea	-5.914
156	0xc5ec	-5.92
157	0xc5cf	-5.81
158	0xc64f	-6.31
159	0xc5f6	-5.96
160	0xc5cc	-5.797
161	0xc562	-5.383
162	0xc552	-5.32
163	0xc615	-6.082
164	0xc547	-5.277
165	0xc608	-6.03
166	0xc66e	-6.43
167	0xc62d	-6.176
168	0xc58e	-5.555
169	0xc611	-6.066
170	0xc601	-6.004
171	0xc61d	-6.113
172	0xc5ed	-5.926
173	0xc69f	-6.62
174	0xc68e	-6.555
175	0xc64a	-6.29
176	0xc642	-6.258
177	0xc613	-6.074
178	0xc5fa	-5.977
179	0xc672	-6.445
180	0xc690	-6.562
181	0xc5c8	-5.78
182	0xc5d1	-5.816
183	0xc5e0	-5.875
184	0xc560	-5.375
185	0xc623	-6.137
186	0xc5ea	-5.914
187	0xc61f	-6.12
188	0xc61e	-6.117
189	0xc5f1	-5.94
190	0xc630	-6.188
191	0xc688	-6.53
192	0xc594	-5.58
193	0xc5ff	-5.996
194	0xc5f7	-5.965
195	0xc60a	-6.04
196	0xc649	-6.285
197	0xc624	-6.14
198	0xc637	-6.215
199	0xc67a	-6.477
200	0xc66a	-6.414
201	0xc612	-6.07
202	0xc62f	-6.184
203	0xc669	-6.41
204	0xc5ef	-5.934
205	0xc667	-6.402
206	0xc642	-6.258
207	0xc600	-6.0
208	0xc684	-6.516
209	0xc5ba	-5.727
210	0xc5fe	-5.992
211	0xc65d	-6.363
212	0xc652	-6.32
213	0xc642	-6.258
214	0xc62d	-6.176
215	0xc67c	-6.484
216	0xc607	-6.027
217	0xc68f	-6.56
218	0xc622	-6.133
219	0xc5f3	-5.95
220	0xc5d6	-5.836
221	0xc5df	-5.87
222	0xc5f7	-5.965
223	0xc5dd	-5.863
224	0xc67f	-6.496
225	0xc5a4	-5.64
226	0xc5fd	-5.99
227	0xc583	-5.51
228	0xc56f	-5.434
229	0xc65e	-6.367
230	0xc55f	-5.37
231	0xc5ed	-5.926
232	0xc607	-6.027
233	0xc5f4	-5.953
234	0xc630	-6.188
235	0xc71d	-7.113
236	0xc592	-5.57
237	0xc575	-5.457
238	0xc5c6	-5.773
239	0xc603	-6.01
240	0xc59e	-5.617
241	0xc697	-6.59
242	0xc66c	-6.42
243	0xc621	-6.13
244	0xc59a	-5.6
245	0xc5fc	-5.984
246	0xc5e1	-5.88
247	0xc5e6	-5.9
248	0xc686	-6.523
249	0xc63d	-6.24
250	0xc5b7	-5.715
251	0xc5c5	-5.77
252	0xc5f4	-5.953
253	0xc6b7	-6.715
254	0xc612	-6.07
255	0xc698	-6.594

model/block_10_depthwise_BN/FusedBatchNormV3 f2 [144]
0	0x38c8	0.5977
1	0x3e31	1.548
2	0x3f10	1.766
3	0x402a	2.082
4	0x38bc	0.592
5	0x2232	0.0121
6	0xb61a	-0.3813
7	0xbab5	-0.8384
8	0x3b37	0.902
9	0x4381	3.752
10	0x43c9	3.893
11	0x40c3	2.38
12	0x9a60	-0.003113
13	0x401c	2.055
14	0xb2e9	-0.216
15	0x3ddf	1.468
16	0x3c88	1.133
17	0xbf1a	-1.775
18	0x40f3	2.475
19	0xb425	-0.259
20	0x3fd5	1.958
21	0x452d	5.176
22	0x3ef1	1.735
23	0x3fcd	1.95
24	0x40bb	2.365
25	0x43d9	3.924
26	0x4235	3.104
27	0x43ed	3.963
28	0x3c5c	1.09
29	0x3eac	1.668
30	0xbd8f	-1.39
31	0xbe57	-1.585
32	0x3825	0.518
33	0xb8e4	-0.6113
34	0xb701	-0.4377
35	0x3c3b	1.058
36	0x3d25	1.286
37	0x3fb9	1.931
38	0x3c53	1.081
39	0x17db	0.001918
40	0x42b4	3.352
41	0x3ed1	1.704
42	0x3d73	1.362
43	0x4426	4.15
44	0x3de9	1.478
45	0x4372	3.723
46	0x3eb8	1.68
47	0x3955	0.6665
48	0x407f	2.248
49	0x3b7e	0.9365
50	0xc08b	-2.271
51	0x3dfe	1.498
52	0x29dd	0.0458
53	0xb757	-0.4587
54	0xc011	-2.033
55	0xc00f	-2.03
56	0x449d	4.613
57	0x4441	4.254
58	0x3a1a	0.7627
59	0xb745	-0.4543
60	0x3e16	1.521
61	0x4085	2.26
62	0xb964	-0.674
63	0xbd0d	-1.263
64	0x4216	3.043
65	0x41ef	2.967
66	0x3996	0.698
67	0xb480	-0.2812
68	0x447c	4.484
69	0xb751	-0.4573
70	0x3f05	1.755
71	0x2422	0.01614
72	0xba72	-0.8057
73	0x361f	0.3826
74	0x4359	3.674
75	0x3da5	1.411
76	0x3c3c	1.059
77	0x44d4	4.83
78	0xac27	-0.0649
79	0xae0f	-0.09467
80	0xab3e	-0.05658
81	0x45b6	5.71
82	0xb831	-0.524
83	0x3d94	1.395
84	0x41d4	2.914
85	0x421a	3.05
86	0xb92a	-0.6455
87	0x4186	2.762
88	0x3aa3	0.8296
89	0x3d7b	1.37
90	0xbcf7	-1.241
91	0xb98a	-0.6924
92	0x40c4	2.383
93	0xb61d	-0.382
94	0x442e	4.18
95	0x3d15	1.2705
96	0xbc19	-1.024
97	0x3ca8	1.164
98	0x406e	2.215
99	0xbeb0	-1.672
100	0x3e54	1.582
101	0x2fe0	0.12305
102	0xba5c	-0.795
103	0x4277	3.232
104	0x3974	0.6816
105	0xb705	-0.4387
106	0x42f6	3.48
107	0x9fba	-0.007545
108	0x43d8	3.922
109	0x4043	2.13
110	0x4050	2.156
111	0x4212	3.035
112	0xbd65	-1.349
113	0xb755	-0.4583
114	0x3c44	1.066
115	0x40a2	2.316
116	0xb70c	-0.4404
117	0x4287	3.264
118	0x4561	5.38
119	0x3d71	1.36
120	0x3dfb	1.495
121	0x3d9b	1.401
122	0xb32a	-0.2239
123	0x3fc9	1.946
124	0x443f	4.246
125	0x1ef4	0.00679
126	0x3d82	1.377
127	0xb6fa	-0.436
128	0x41f4	2.977
129	0x3c60	1.094
130	0xba40	-0.7812
131	0x41e7	2.951
132	0x403e	2.121
133	0x3518	0.3184
134	0xb8ac	-0.584
135	0x9c92	-0.004463
136	0xbc90	-1.141
137	0x4015	2.041
138	0x3c9f	1.155
139	0xbcbe	-1.186
140	0xb7c9	-0.4866
141	0x440b	4.043
142	0x412f	2.592
143	0x4094	2.29

model/block_10_expand_BN/FusedBatchNormV3 f2 [144]
0	0xb442	-0.266
1	0x3410	0.254
2	0x3cd9	1.212
3	0x3c92	1.143
4	0x3c62	1.096
5	0x3e90	1.641
6	0x3be9	0.989
7	0x3b7e	0.9365
8	0x4016	2.043
9	0x4052	2.16
10	0x4128	2.578
11	0x3e67	1.601
12	0x3058	0.1357
13	0x3724	0.4463
14	0xbc84	-1.129
15	0xb46e	-0.2769
16	0x39c5	0.721
17	0x3c7c	1.121
18	0xb268	-0.2002
19	0xb9ac	-0.709
20	0x3a1e	0.7646
21	0xbae5	-0.862
22	0x3b4f	0.9136
23	0x3f20	1.781
24	0xb4b9	-0.2952
25	0x40c3	2.38
26	0xbab5	-0.8384
27	0x4050	2.156
28	0x395f	0.6714
29	0x3dbf	1.437
30	0x3809	0.5044
31	0xafba	-0.1207
32	0xb874	-0.5566
33	0xb803	-0.5015
34	0x3f3c	1.809
35	0xb123	-0.1605
36	0x38d1	0.602
37	0x3bbe	0.968
38	0x3ba7	0.9565
39	0xba7a	-0.8096
40	0x412a	2.582
41	0x3895	0.5728
42	0x374c	0.456
43	0x3c60	1.094
44	0x3a4d	0.7876
45	0x3491	0.2854
46	0x3dde	1.467
47	0x3f0a	1.76
48	0x3e61	1.595
49	0x335c	0.23
50	0x3d94	1.395
51	0xbe18	-1.523
52	0x40e6	2.45
53	0x4147	2.639
54	0x4128	2.578
55	0x3c4e	1.076
56	0x416a	2.707
57	0xbc8d	-1.138
58	0x3d60	1.344
59	0xb7ce	-0.4878
60	0x3d65	1.349
61	0x41bc	2.867
62	0xbfb6	-1.928
63	0x311c	0.1597
64	0xbb41	-0.9067
65	0x3f19	1.774
66	0x3431	0.262
67	0x3ba8	0.957
68	0x40f4	2.477
69	0xb563	-0.3367
70	0xa867	-0.0344
71	0xba20	-0.7656
72	0x3e78	1.617
73	0x3e02	1.502
74	0x40fe	2.496
75	0x3940	0.6562
76	0x37a6	0.478
77	0xbc79	-1.118
78	0xbdba	-1.432
79	0xbb86	-0.9404
80	0xb888	-0.5664
81	0x40c4	2.383
82	0xb831	-0.524
83	0x3e07	1.507
84	0xb844	-0.533
85	0x3fe1	1.97
86	0xb23d	-0.195
87	0x3fea	1.979
88	0x34d8	0.3027
89	0x2e50	0.09863
90	0xae0e	-0.0946
91	0x36de	0.4292
92	0x4019	2.049
93	0x3834	0.5254
94	0x41bb	2.865
95	0x3ae9	0.864
96	0x3ddf	1.468
97	0x35ae	0.355
98	0x36be	0.4214
99	0x39ac	0.709
100	0x3f2a	1.791
101	0x3a3a	0.7783
102	0x3a0c	0.756
103	0x40d0	2.406
104	0xbd0b	-1.261
105	0xaac0	-0.05273
106	0x4069	2.205
107	0xbf11	-1.767
108	0x3cd2	1.205
109	0x40b6	2.355
110	0xb1a1	-0.1759
111	0x3d00	1.25
112	0x3493	0.286
113	0x3cbe	1.186
114	0xbe82	-1.627
115	0x4056	2.168
116	0x3dbf	1.437
117	0x3ca0	1.156
118	0x410e	2.527
119	0xa626	-0.02402
120	0x3d60	1.344
121	0x3f6a	1.854
122	0xb8b0	-0.586
123	0x4082	2.254
124	0x4054	2.164
125	0x303f	0.1327
126	0x3e70	1.609
127	0x3ea6	1.662
128	0xbab1	-0.8364
129	0xb155	-0.1666
130	0x378c	0.4717
131	0xbc64	-1.098
132	0x395c	0.67
133	0x3f02	1.752
134	0x3cbd	1.185
135	0x380f	0.5073
136	0x385f	0.5464
137	0x3f56	1.834
138	0x4062	2.191
139	0x3e19	1.524
140	0x3d1f	1.28
141	0x4134	2.602
142	0x3c16	1.021
143	0xbb80	-0.9375

model/block_11_depthwise_BN/FusedBatchNormV3 f2 [192]
0	0x39f1	0.7427
1	0x30e7	0.1532
2	0x44f2	4.945
3	0x3ded	1.481
4	0x3d75	1.364
5	0xb850	-0.539
6	0xbe66	-1.6
7	0xaf50	-0.11426
8	0x3c6a	1.104
9	0xbe2a	-1.541
10	0xc1fd	-2.994
11	0x3ad9	0.856
12	0x9fd8	-0.00766
13	0xba09	-0.7544
14	0x3400	0.25
15	0x3d45	1.317
16	0x41e0	2.938
17	0x3cb7	1.179
18	0xb83a	-0.5283
19	0x3c5b	1.089
20	0xbafd	-0.8735
21	0xc033	-2.1
22	0x4446	4.273
23	0xbce4	-1.223
24	0xb5dc	-0.3662
25	0xb8fc	-0.623
26	0xb24f	-0.1971
27	0xb43f	-0.2654
28	0x3ca2	1.158
29	0xc0f9	-2.486
30	0x3c2c	1.043
31	0xbd7e	-1.373
32	0x42e4	3.445
33	0xbd96	-1.396
34	0xbe94	-1.645
35	0x2413	0.01591
36	0xbb49	-0.9106
37	0xb4b1	-0.2932
38	0x4349	3.643
39	0x404f	2.154
40	0x3913	0.6343
41	0x3f30	1.797
42	0xbf7a	-1.869
43	0xbf41	-1.813
44	0xbdd6	-1.459
45	0xbeb3	-1.675
46	0xbcd2	-1.205
47	0x3a2b	0.771
48	0xb16d	-0.1696
49	0xc1c6	-2.887
50	0xb5d2	-0.3638
51	0x39b1	0.7114
52	0x408c	2.273
53	0xb94f	-0.6636
54	0xbcae	-1.17
55	0xc237	-3.107
56	0xbcb2	-1.174
57	0xb971	-0.68
58	0xbcb3	-1.175
59	0xbf75	-1.864
60	0xb07c	-0.1401
61	0x2505	0.0196
62	0x3d5a	1.338
63	0x41ec	2.96
64	0xbfc2	-1.939
65	0x3d36	1.303
66	0x40ce	2.402
67	0xc05b	-2.178
68	0x43bb	3.865
69	0xc3f4	-3.977
70	0xbce1	-1.22
71	0x3d9f	1.405
72	0xbc66	-1.1
73	0xb101	-0.1564
74	0x4136	2.605
75	0xb44c	-0.2686
76	0xbdb4	-1.426
77	0xbf24	-1.785
78	0x3c2d	1.044
79	0xbc59	-1.087
80	0x2b0d	0.05508
81	0x423e	3.121
82	0x3ecf	1.702
83	0x3e37	1.554
84	0xb2d9	-0.214
85	0xabb3	-0.06015
86	0x2a70	0.0503
87	0xafbd	-0.1209
88	0x40e8	2.453
89	0xc1b6	-2.855
90	0x3e40	1.5625
91	0x39e2	0.7354
92	0xb59c	-0.3506
93	0x3dac	1.418
94	0x4007	2.014
95	0x9a01	-0.002932
96	0xb24b	-0.1967
97	0x38e6	0.6123
98	0x4137	2.607
99	0xb9de	-0.7334
100	0xc1e1	-2.94
101	0xc183	-2.756
102	0x3df6	1.49
103	0x3fe4	1.973
104	0xb6c0	-0.4219
105	0xc07d	-2.244
106	0x3e3c	1.559
107	0xc67a	-6.477
108	0x8530	-7.915e-05
109	0xbc8e	-1.139
110	0xb3dc	-0.2456
111	0x3d83	1.378
112	0xb21f	-0.1913
113	0xb999	-0.6997
114	0xc49f	-4.62
115	0xbe81	-1.626
116	0x37eb	0.4949
117	0xc166	-2.7
118	0x1ac7	0.00331
119	0xbe4c	-1.574
120	0x4acb	13.586
121	0xb689	-0.4084
122	0x3a28	0.7695
123	0x206a	0.00862
124	0xbcd4	-1.207
125	0x3986	0.6904
126	0xc095	-2.291
127	0xabf2	-0.06207
128	0xc2a2	-3.316
129	0xc2c5	-3.385
130	0x3dc4	1.441
131	0xbeca	-1.697
132	0xa836	-0.0329
133	0xb9f2	-0.743
134	0xa9b8	-0.04468
135	0x4101	2.502
136	0xc30f	-3.53
137	0x390a	0.63
138	0xba37	-0.777
139	0xbc50	-1.078
140	0x3eb8	1.68
141	0xc4fd	-4.99
142	0x3c86	1.131
143	0xb3e1	-0.2462
144	0xb94a	-0.661
145	0x2fb7	0.12054
146	0xbd8c	-1.387
147	0xc089	-2.268
148	0x37af	0.4802
149	0x3c5a	1.088
150	0xbdec	-1.48
151	0x3a7e	0.8115
152	0x3bc7	0.972
153	0x3cf9	1.243
154	0xb169	-0.1691
155	0x3242	0.1956
156	0x3918	0.6367
157	0x3d52	1.33
158	0x4079	2.236
159	0xbed2	-1.705
160	0x413c	2.617
161	0x3852	0.54
162	0x402d	2.088
163	0xbfbf	-1.937
164	0xaa57	-0.04953
165	0xb70d	-0.4407
166	0x3e53	1.581
167	0xc1a2	-2.816
168	0xad3e	-0.0819
169	0x292d	0.04044
170	0x46f5	6.957
171	0xaba3	-0.05966
172	0xbc73	-1.112
173	0xbf09	-1.759
174	0xc3bb	-3.865
175	0x2548	0.02063
176	0xbd02	-1.252
177	0x3e14	1.52
178	0x3c7b	1.12
179	0xb541	-0.3284
180	0xa7ae	-0.03
181	0x3eb5	1.677
182	0xbd57	-1.335
183	0xb4b8	-0.295
184	0xb4b3	-0.2937
185	0x3fe4	1.973
186	0x3447	0.2673
187	0xb882	-0.5635
188	0xa8c1	-0.03714
189	0x3f90	1.891
190	0x3ffd	1.997
191	0xbb39	-0.903

model/block_11_expand_BN/FusedBatchNormV3 f2 [192]
0	0x408f	2.28
1	0xbc39	-1.056
2	0x3d4e	1.326
3	0x3a2e	0.7725
4	0x39ef	0.7417
5	0x3dbc	1.434
6	0x3844	0.533
7	0x3ca9	1.165
8	0x387a	0.5596
9	0xbcf8	-1.242
10	0xb9d6	-0.7295
11	0xb196	-0.1746
12	0x395a	0.669
13	0xb1a0	-0.1758
14	0x3ce9	1.228
15	0x3c61	1.095
16	0x351d	0.3196
17	0xb9ed	-0.7407
18	0xa910	-0.03955
19	0xb872	-0.5557
20	0x3b8a	0.9424
21	0x3cd9	1.212
22	0x3e56	1.584
23	0x4042	2.129
24	0x3884	0.5645
25	0x3f22	1.783
26	0xb66e	-0.4019
27	0xbca6	-1.162
28	0xbf59	-1.837
29	0x3ddf	1.468
30	0xb57d	-0.343
31	0x3c7a	1.119
32	0x2fff	0.12494
33	0xb944	-0.658
34	0x2f50	0.11426
35	0xbe06	-1.506
36	0x3da8	1.414
37	0xbbeb	-0.9897
38	0x3e4a	1.572
39	0xbb17	-0.886
40	0x3daa	1.416
41	0x3951	0.6646
42	0x358c	0.3467
43	0x3df1	1.485
44	0x3d86	1.381
45	0x3eaa	1.666
46	0x3b83	0.939
47	0x3e1a	1.525
48	0x3b64	0.924
49	0x396c	0.6777
50	0x3e3e	1.561
51	0x4080	2.25
52	0xbcf6	-1.24
53	0xb49f	-0.2888
54	0xbc44	-1.066
55	0xb806	-0.503
56	0xbd9c	-1.402
57	0x3b32	0.8994
58	0x3c88	1.133
59	0xba0b	-0.7554
60	0xb5ee	-0.3706
61	0x3e7b	1.62
62	0xb81f	-0.515
63	0x405e	2.184
64	0xb470	-0.2773
65	0x361f	0.3826
66	0x3cca	1.197
67	0x3ea1	1.657
68	0x417d	2.744
69	0xa205	-0.01176
70	0x3a0e	0.757
71	0x3e64	1.598
72	0xb5e4	-0.3682
73	0x3498	0.287
74	0x3df8	1.492
75	0x3b6c	0.9277
76	0xbcfa	-1.244
77	0xb515	-0.3176
78	0xae7b	-0.10126
79	0x3d87	1.382
80	0x3adc	0.8574
81	0xb4f0	-0.3086
82	0x3a49	0.7856
83	0x39ed	0.7407
84	0x3da6	1.412
85	0xb810	-0.508
86	0x3e79	1.618
87	0x3d70	1.359
88	0xb87d	-0.561
89	0xb060	-0.1367
90	0x4169	2.705
91	0x37b1	0.4807
92	0x3c13	1.019
93	0x40a8	2.328
94	0x3c04	1.004
95	0x3ece	1.701
96	0xbd02	-1.252
97	0x3dc1	1.438
98	0xb178	-0.1709
99	0x3e57	1.585
100	0x3c4c	1.074
101	0x3b8b	0.943
102	0x3fac	1.918
103	0x3db2	1.424
104	0xbcb3	-1.175
105	0xba61	-0.7974
106	0x4055	2.166
107	0x3e5c	1.59
108	0x37e8	0.4941
109	0xbddf	-1.468
110	0x3cf4	1.238
111	0x3c07	1.007
112	0x3dbb	1.433
113	0x3d8c	1.387
114	0x3c35	1.052
115	0xb12b	-0.1615
116	0x2dac	0.0886
117	0x3c07	1.007
118	0xba25	-0.768
119	0xb639	-0.389
120	0x446b	4.418
121	0x3d8f	1.39
122	0xbb29	-0.895
123	0xbba1	-0.9536
124	0x3d97	1.397
125	0xbc35	-1.052
126	0x3dd7	1.46
127	0xb81f	-0.515
128	0x3b86	0.9404
129	0xb89f	-0.5776
130	0x3f2b	1.792
131	0xb170	-0.1699
132	0x3dc6	1.443
133	0xbc2c	-1.043
134	0xbaf4	-0.869
135	0x3e3e	1.561
136	0x3599	0.3499
137	0xb8bc	-0.592
138	0xbb7d	-0.936
139	0x3a16	0.7607
140	0x386e	0.5537
141	0xbbc3	-0.97
142	0x2a5b	0.04965
143	0x3cee	1.232
144	0xb850	-0.539
145	0x3d9d	1.403
146	0xafd1	-0.12213
147	0xb91e	-0.6396
148	0xb418	-0.2559
149	0xbcdb	-1.214
150	0x3dbf	1.437
151	0x3ec6	1.693
152	0x2f3b	0.113
153	0x3767	0.4626
154	0x3e9f	1.655
155	0x3c44	1.066
156	0x405f	2.186
157	0xb41f	-0.2576
158	0x3c50	1.078
159	0x3cf4	1.238
160	0xbf1c	-1.777
161	0x3fe9	1.978
162	0x3c04	1.004
163	0x3d92	1.393
164	0x3d87	1.382
165	0x3ef3	1.737
166	0x3e04	1.504
167	0x3317	0.2216
168	0x3ee4	1.723
169	0x3ca2	1.158
170	0x3fac	1.918
171	0x3d4f	1.327
172	0xb321	-0.2228
173	0x4093	2.287
174	0x3ca7	1.163
175	0x37ad	0.4797
176	0x2b08	0.05493
177	0x3be2	0.9854
178	0xb19b	-0.1752
179	0x3d87	1.382
180	0x396d	0.678
181	0x38a7	0.5815
182	0xbb85	-0.94
183	0x3c8d	1.138
184	0x3c6e	1.107
185	0xb529	-0.3225
186	0x3e4e	1.576
187	0xbbdc	-0.9824
188	0xb677	-0.404
189	0x3c2e	1.045
190	0xb972	-0.6807
191	0x3286	0.2039

model/block_12_depthwise_BN/FusedBatchNormV3 f2 [192]
0	0xb90d	-0.6313
1	0xc151	-2.658
2	0x41bc	2.867
3	0x3cad	1.169
4	0x43ed	3.963
5	0xbb5e	-0.921
6	0xbd03	-1.253
7	0xb748	-0.455
8	0x2e78	0.1011
9	0x38a7	0.5815
10	0x405b	2.178
11	0xbd49	-1.321
12	0xc4a4	-4.64
13	0xc3ec	-3.96
14	0x44bd	4.74
15	0x401e	2.059
16	0xc05f	-2.186
17	0xc218	-3.047
18	0xb851	-0.5396
19	0x371c	0.4443
20	0xc168	-2.703
21	0x3a51	0.7896
22	0xc610	-6.062
23	0xbc33	-1.05
24	0x3af0	0.867
25	0xb438	-0.2637
26	0x39ae	0.71
27	0xc535	-5.207
28	0xc031	-2.096
29	0xbffe	-1.998
30	0xb163	-0.1683
31	0x41ee	2.965
32	0x4262	3.191
33	0xbd91	-1.392
34	0xbfe4	-1.973
35	0x3ef7	1.741
36	0x3d55	1.333
37	0x40bb	2.365
38	0x3a13	0.7593
39	0xc07b	-2.24
40	0x3a53	0.7905
41	0xbd90	-1.391
42	0xb3f3	-0.2484
43	0x3c14	1.02
44	0xb5bd	-0.3586
45	0x3ef3	1.737
46	0x3d42	1.314
47	0x382e	0.5225
48	0x3e0c	1.512
49	0x3ef5	1.739
50	0xbcb8	-1.18
51	0x3b57	0.9175
52	0x3c2a	1.041
53	0x3fbd	1.935
54	0xb4dc	-0.3037
55	0xbb96	-0.948
56	0x3b2f	0.898
57	0xba2d	-0.772
58	0xbfcb	-1.948
59	0xae57	-0.09906
60	0x3e3a	1.557
61	0x42bc	3.367
62	0x3f7d	1.872
63	0xb684	-0.4072
64	0xb9e6	-0.7373
65	0xbd18	-1.273
66	0xc179	-2.736
67	0xb831	-0.524
68	0x3fab	1.917
69	0xaec2	-0.1056
70	0xaeed	-0.1082
71	0xc111	-2.533
72	0xae2a	-0.0963
73	0x447e	4.492
74	0xbc10	-1.016
75	0x40af	2.342
76	0x3d60	1.344
77	0xbccb	-1.198
78	0xb386	-0.2351
79	0x3d00	1.25
80	0xbfad	-1.919
81	0x4128	2.578
82	0x3f92	1.893
83	0xc0f1	-2.47
84	0xbf1d	-1.778
85	0xb70a	-0.44
86	0xb345	-0.2272
87	0x3d9e	1.404
88	0xb53a	-0.3267
89	0x3bcf	0.976
90	0x3b50	0.914
91	0xbaac	-0.834
92	0x3c51	1.079
93	0x3ee2	1.721
94	0x3cba	1.182
95	0xbdc4	-1.441
96	0xc1a7	-2.826
97	0x2d4c	0.08276
98	0x2e5b	0.0993
99	0x4011	2.033
100	0x39cd	0.725
101	0xc07e	-2.246
102	0x3561	0.3362
103	0x3d3e	1.311
104	0xbe67	-1.601
105	0xc06c	-2.21
106	0xbb96	-0.948
107	0xb6c9	-0.424
108	0xc1f5	-2.979
109	0x420e	3.027
110	0x3785	0.47
111	0xb02d	-0.1305
112	0xad45	-0.08234
113	0x3b95	0.9478
114	0xc472	-4.445
115	0x40e8	2.453
116	0xbff8	-1.992
117	0xc2e3	-3.443
118	0x3c17	1.022
119	0x429d	3.307
120	0xc764	-7.39
121	0x3a0c	0.756
122	0xb8f3	-0.6187
123	0x3f30	1.797
124	0xb6a7	-0.4158
125	0x36a7	0.4158
126	0xb20c	-0.189
127	0x36a8	0.416
128	0xc1c2	-2.879
129	0xc5e5	-5.895
130	0xbef1	-1.735
131	0xc57d	-5.49
132	0x411c	2.555
133	0xc12a	-2.582
134	0xb2ab	-0.2084
135	0xb939	-0.653
136	0x3c3c	1.059
137	0xb5ad	-0.3547
138	0xb30c	-0.2202
139	0x4131	2.596
140	0x3f49	1.821
141	0xc533	-5.2
142	0xb69d	-0.4133
143	0x38cb	0.599
144	0xaf7f	-0.1171
145	0xbcf7	-1.241
146	0xb922	-0.6416
147	0xb8c3	-0.595
148	0xa6f0	-0.0271
149	0x35ba	0.358
150	0xbd8e	-1.389
151	0xbe10	-1.516
152	0x42e6	3.45
153	0xb8fc	-0.623
154	0x3c03	1.003
155	0xc098	-2.297
156	0x26aa	0.02603
157	0xbb4e	-0.913
158	0x3e9c	1.652
159	0xc284	-3.258
160	0xacec	-0.0769
161	0xc101	-2.502
162	0xc1ba	-2.863
163	0x3ca9	1.165
164	0x3aab	0.8335
165	0xbc4f	-1.077
166	0xbea5	-1.661
167	0xb9ef	-0.7417
168	0x395f	0.6714
169	0x383e	0.5303
170	0x4223	3.068
171	0x3da2	1.408
172	0xb494	-0.2861
173	0xb80c	-0.506
174	0x3eea	1.729
175	0xbc60	-1.094
176	0xb7bb	-0.4832
177	0x3bcf	0.976
178	0xb7b6	-0.482
179	0x3208	0.1885
180	0xbfcc	-1.949
181	0xb626	-0.3843
182	0xbf18	-1.773
183	0x3d18	1.273
184	0x9d72	-0.005318
185	0x3f03	1.753
186	0xb96a	-0.677
187	0xc120	-2.562
188	0xc023	-2.068
189	0xb48f	-0.285
190	0x423f	3.123
191	0x3ebf	1.687

model/block_12_expand_BN/FusedBatchNormV3 f2 [192]
0	0xbf56	-1.834
1	0x367d	0.4055
2	0xb35f	-0.2303
3	0x3cf0	1.234
4	0x38d4	0.6035
5	0x39bb	0.7163
6	0x2755	0.02864
7	0xbc45	-1.067
8	0x3ae8	0.8633
9	0x37a6	0.478
10	0xb8f2	-0.618
11	0xb3c9	-0.2433
12	0x3e4a	1.572
13	0x3f5b	1.839
14	0x405d	2.182
15	0x34ee	0.308
16	0xa970	-0.04248
17	0x3dc3	1.44
18	0xbc20	-1.031
19	0x3d9e	1.404
20	0x35b4	0.3564
21	0xb23c	-0.1948
22	0xb595	-0.3489
23	0xbd0f	-1.265
24	0x3448	0.2676
25	0x3d7a	1.369
26	0xaa90	-0.05127
27	0x3e81	1.626
28	0xb894	-0.5723
29	0x3763	0.4617
30	0x3adf	0.859
31	0x382b	0.521
32	0x3db6	1.428
33	0x3f00	1.75
34	0xba54	-0.791
35	0xb060	-0.1367
36	0x430d	3.525
37	0x3d6d	1.356
38	0x3d22	1.283
39	0xbb66	-0.925
40	0x3c12	1.018
41	0xb167	-0.1688
42	0xadb6	-0.08923
43	0xb6ba	-0.4204
44	0x3ab4	0.838
45	0xb233	-0.1937
46	0x3c4b	1.073
47	0x354b	0.3308
48	0xbd34	-1.301
49	0x3a97	0.8237
50	0xb8fd	-0.6235
51	0xaf26	-0.1117
52	0x3394	0.2368
53	0x3dbd	1.435
54	0xbacd	-0.85
55	0x3ccd	1.2
56	0x386a	0.552
57	0xbb1b	-0.888
58	0xb9ff	-0.7495
59	0xbc79	-1.118
60	0x25ec	0.02313
61	0x34c2	0.2974
62	0x3ffc	1.996
63	0xbac9	-0.848
64	0x3cd5	1.208
65	0xbbf3	-0.9937
66	0x2e44	0.0979
67	0x3bc9	0.973
68	0x376e	0.4644
69	0x4110	2.531
70	0x3d2e	1.295
71	0x3cb5	1.177
72	0x3c98	1.148
73	0xbb35	-0.901
74	0xbd93	-1.394
75	0xb14d	-0.1656
76	0xbd3e	-1.311
77	0x340a	0.2524
78	0x3e50	1.578
79	0x3755	0.4583
80	0x3a82	0.8135
81	0x39c0	0.7188
82	0xb97e	-0.6865
83	0xbcf5	-1.239
84	0x2fb6	0.1205
85	0x3d96	1.396
86	0x363f	0.3904
87	0x3cbf	1.187
88	0x3bea	0.9893
89	0xbb88	-0.9414
90	0x3e30	1.547
91	0xb7fb	-0.4988
92	0x3a17	0.761
93	0xb0da	-0.1516
94	0x3481	0.2815
95	0x2fa3	0.1193
96	0x3a3e	0.7803
97	0x3527	0.322
98	0xaf31	-0.11237
99	0x3f61	1.845
100	0x3aa1	0.8286
101	0xbbc6	-0.9717
102	0xbd99	-1.399
103	0x3a0b	0.7554
104	0x2614	0.02374
105	0xbcd5	-1.208
106	0x1eb9	0.006565
107	0x3a8d	0.819
108	0x38d7	0.605
109	0xb6fb	-0.4363
110	0xba1a	-0.7627
111	0x3d9e	1.404
112	0x3d63	1.347
113	0xb751	-0.4573
114	0xb76a	-0.4634
115	0xaa1d	-0.04776
116	0xabd1	-0.06107
117	0x3c31	1.048
118	0xb753	-0.4578
119	0xbdbb	-1.433
120	0x3da9	1.415
121	0x3f1c	1.777
122	0xbdd3	-1.456
123	0x40b3	2.35
124	0xb10c	-0.1577
125	0x3d78	1.367
126	0x3b2f	0.898
127	0x32e3	0.2152
128	0xb77a	-0.4673
129	0x4109	2.518
130	0xbd62	-1.346
131	0x3c93	1.144
132	0xbeba	-1.682
133	0xad8a	-0.08655
134	0x3e43	1.565
135	0xbc8d	-1.138
136	0x3156	0.1667
137	0x3dfe	1.498
138	0x3bf9	0.9966
139	0x3e91	1.642
140	0x34f0	0.3086
141	0xb8e3	-0.611
142	0x1ef4	0.00679
143	0x2d02	0.07825
144	0x3db6	1.428
145	0x351b	0.319
146	0xb608	-0.377
147	0xbbea	-0.9893
148	0x3e5a	1.588
149	0x37de	0.4917
150	0xbb18	-0.8867
151	0xb8cf	-0.601
152	0xbdba	-1.432
153	0xa647	-0.02452
154	0x3519	0.3186
155	0xb47f	-0.281
156	0x3df3	1.487
157	0xbf4e	-1.826
158	0xbd89	-1.384
159	0xb8ac	-0.584
160	0xb51c	-0.3193
161	0xb8f7	-0.6206
162	0xb69e	-0.4136
163	0x3468	0.2754
164	0x3d49	1.321
165	0x27f8	0.03113
166	0xbb4b	-0.9116
167	0xba90	-0.8203
168	0x3e58	1.586
169	0xb7ad	-0.4797
170	0xbd50	-1.328
171	0x39bd	0.7173
172	0x3dab	1.417
173	0x3c7a	1.119
174	0x3ec3	1.69
175	0x3e24	1.535
176	0x39bd	0.7173
177	0x3baf	0.9604
178	0xb858	-0.543
179	0x37d5	0.4895
180	0x3e52	1.58
181	0xb9dd	-0.733
182	0x3ad2	0.8525
183	0x3a37	0.777
184	0x33c4	0.2427
185	0xbc5b	-1.089
186	0x3d9e	1.404
187	0x39d2	0.7275
188	0xb853	-0.5405
189	0xbb76	-0.9326
190	0xbae2	-0.8604
191	0x3bc1	0.969

model/block_13_depthwise_BN/FusedBatchNormV3 f2 [192]
0	0xba3e	-0.7803
1	0x226e	0.01256
2	0x1d9a	0.00547
3	0xb999	-0.6997
4	0x3a3b	0.779
5	0x136f	0.0009074
6	0x3f7e	1.873
7	0x1b4b	0.003561
8	0x3767	0.4626
9	0x12e9	0.0008435
10	0xa08e	-0.008896
11	0x8f7a	-0.0004563
12	0x408e	2.277
13	0x2854	0.0338
14	0x2d58	0.0835
15	0x4444	4.266
16	0x4204	3.008
17	0xc660	-6.375
18	0x1ab9	0.003283
19	0xa4b4	-0.01837
20	0x4071	2.22
21	0x45a9	5.66
22	0xb29b	-0.2064
23	0x36c7	0.4236
24	0x452f	5.184
25	0x9c37	-0.004116
26	0x9597	-0.001365
27	0x42c5	3.385
28	0x1527	0.001258
29	0x402d	2.088
30	0x4046	2.137
31	0x3e84	1.629
32	0x439d	3.807
33	0x4435	4.207
34	0x9d2a	-0.005043
35	0x99b5	-0.002787
36	0x3dce	1.451
37	0x448c	4.547
38	0xad9f	-0.0878
39	0x45a7	5.652
40	0x8f4e	-0.0004458
41	0x45b6	5.71
42	0x94ee	-0.001204
43	0x4064	2.195
44	0x9c7e	-0.004387
45	0x4402	4.008
46	0xa449	-0.01674
47	0x3360	0.2305
48	0xa08b	-0.00887
49	0x9c34	-0.004105
50	0x45ef	5.934
51	0x3f44	1.816
52	0xa400	-0.01563
53	0x4465	4.395
54	0xb05e	-0.1365
55	0x45e5	5.895
56	0x9f8e	-0.007378
57	0x2535	0.02034
58	0xaf4c	-0.114
59	0xb6bb	-0.4207
60	0x4435	4.207
61	0x4326	3.574
62	0xa04c	-0.00839
63	0x2c7f	0.07025
64	0x1dad	0.005543
65	0x3024	0.1294
66	0x451c	5.11
67	0x166f	0.001571
68	0x3fb1	1.923
69	0x3f57	1.835
70	0x432b	3.584
71	0x9f09	-0.00687
72	0xac6e	-0.0692
73	0x3fbe	1.936
74	0x9e57	-0.00619
75	0x99ba	-0.002796
76	0xa780	-0.0293
77	0x40b8	2.36
78	0x4803	8.02
79	0x4841	8.51
80	0xaa42	-0.0489
81	0x9191	-0.0006795
82	0x44a2	4.633
83	0x3dd5	1.458
84	0x405c	2.18
85	0x442d	4.176
86	0x2d1e	0.07996
87	0x4203	3.006
88	0xb33d	-0.2262
89	0x3c70	1.109
90	0x40a5	2.322
91	0x382a	0.5205
92	0x9a3f	-0.00305
93	0x2c50	0.0674
94	0x45b8	5.72
95	0x9e8b	-0.00639
96	0x3fff	1.999
97	0x9d34	-0.00508
98	0x9d4f	-0.005184
99	0x9ea0	-0.00647
100	0x25e3	0.023
101	0x9b28	-0.003494
102	0x4601	6.004
103	0x4065	2.197
104	0xa149	-0.01032
105	0x3f4a	1.822
106	0x45fc	5.984
107	0x41a1	2.814
108	0xa07e	-0.00877
109	0x9f0e	-0.00689
110	0x2f25	0.11163
111	0x44cd	4.8
112	0x9dcd	-0.005665
113	0x4236	3.105
114	0x2c14	0.0637
115	0xb103	-0.1566
116	0x4035	2.104
117	0x9914	-0.00248
118	0xac05	-0.0628
119	0x340c	0.253
120	0x3b3e	0.9053
121	0xb00b	-0.1263
122	0x3b41	0.9067
123	0x98d7	-0.002363
124	0x4081	2.252
125	0x3f80	1.875
126	0xa032	-0.008194
127	0xbee0	-1.719
128	0x4486	4.523
129	0x336e	0.2322
130	0x4602	6.008
131	0x2b2a	0.05597
132	0x3d6f	1.358
133	0x433f	3.623
134	0xa0a1	-0.00904
135	0x9cbe	-0.00463
136	0x310d	0.1578
137	0x2afb	0.05453
138	0x3c1c	1.027
139	0xa05a	-0.0085
140	0x2051	0.00843
141	0x9bb8	-0.003769
142	0xb6b8	-0.42
143	0x4619	6.098
144	0xa07a	-0.00874
145	0x3fb7	1.929
146	0x2b16	0.05536
147	0x2bee	0.06195
148	0xb732	-0.4497
149	0x3f91	1.892
150	0x2999	0.04373
151	0x1148	0.0006447
152	0x9f46	-0.007103
153	0x3eef	1.733
154	0x801e	-1.8e-06
155	0x4157	2.67
156	0xb14d	-0.1656
157	0xa4d2	-0.01883
158	0x4019	2.049
159	0xa68a	-0.02554
160	0x38a8	0.582
161	0xbcca	-1.197
162	0x37f7	0.4978
163	0x3037	0.1317
164	0x4405	4.02
165	0xa016	-0.00798
166	0x44e4	4.89
167	0x2ebe	0.10535
168	0xb8d5	-0.604
169	0x3841	0.5317
170	0x247d	0.01753
171	0x43c0	3.875
172	0x1b49	0.003557
173	0x3f78	1.867
174	0xa172	-0.010635
175	0x1bec	0.003868
176	0x2e66	0.1
177	0x2a2c	0.04822
178	0xb391	-0.2365
179	0x9d40	-0.005127
180	0x4228	3.078
181	0x3ba2	0.954
182	0x3e0f	1.515
183	0x3fd4	1.957
184	0x4050	2.156
185	0x311e	0.1599
186	0x41fa	2.988
187	0x9d4c	-0.005173
188	0x2020	0.00806
189	0xa45f	-0.01707
190	0x37e3	0.493
191	0xc712	-7.07

model/block_13_expand_BN/FusedBatchNormV3 f2 [192]
0	0xbe07	-1.507
1	0x3538	0.3262
2	0xb57c	-0.3428
3	0x3d66	1.35
4	0xb434	-0.2627
5	0xb6d6	-0.4272
6	0x3d2e	1.295
7	0xbce3	-1.222
8	0xc001	-2.002
9	0xbc9d	-1.153
10	0xb506	-0.314
11	0xbb6b	-0.9272
12	0x3dea	1.479
13	0xbc51	-1.079
14	0xb925	-0.643
15	0xa8af	-0.0366
16	0x313b	0.1635
17	0x40e3	2.443
18	0xbdde	-1.467
19	0xbc8c	-1.137
20	0x398a	0.6924
21	0x3f97	1.897
22	0xbed4	-1.707
23	0xbc70	-1.109
24	0xb42c	-0.2607
25	0xc03f	-2.123
26	0xb973	-0.681
27	0xba8f	-0.82
28	0xb8e9	-0.614
29	0x3dd4	1.457
30	0x3d06	1.256
31	0x3c4c	1.074
32	0xaf10	-0.11035
33	0x4075	2.229
34	0xbbde	-0.9834
35	0xbc78	-1.117
36	0xb98a	-0.6924
37	0xb9e9	-0.739
38	0xb8f0	-0.617
39	0xbc39	-1.056
40	0xbacd	-0.85
41	0x3afc	0.873
42	0xbe1f	-1.53
43	0xba44	-0.783
44	0xbd24	-1.285
45	0x2cb9	0.0738
46	0xbe5f	-1.593
47	0xb822	-0.5166
48	0xbe1b	-1.526
49	0xbd4a	-1.322
50	0xb589	-0.346
51	0xae66	-0.1
52	0xba7e	-0.8115
53	0x3938	0.6523
54	0xc040	-2.125
55	0xb84e	-0.538
56	0xbe3b	-1.558
57	0xbc7c	-1.121
58	0xb9b5	-0.7134
59	0x3a45	0.7837
60	0xb96a	-0.677
61	0xb3d4	-0.2446
62	0xbdaa	-1.416
63	0x2c14	0.0637
64	0xbbe4	-0.9863
65	0xb872	-0.5557
66	0xb95e	-0.671
67	0xbd5b	-1.339
68	0x3c63	1.097
69	0xab90	-0.05908
70	0xb537	-0.326
71	0xbdd9	-1.462
72	0xbb87	-0.941
73	0x4020	2.062
74	0xba31	-0.774
75	0xc07f	-2.248
76	0xbe17	-1.522
77	0xb044	-0.1333
78	0x418c	2.773
79	0x40a7	2.326
80	0xbfa5	-1.911
81	0xb22b	-0.1927
82	0x3203	0.1879
83	0xad63	-0.08417
84	0xba03	-0.7515
85	0xbb0d	-0.8813
86	0xb3f9	-0.2491
87	0x3ed1	1.704
88	0xb907	-0.6284
89	0xbfd4	-1.957
90	0x289f	0.0361
91	0xb984	-0.6895
92	0xbdb2	-1.424
93	0xbb02	-0.876
94	0xb892	-0.5713
95	0xa92e	-0.04047
96	0xb28c	-0.2046
97	0xbd40	-1.3125
98	0xbcfb	-1.245
99	0xb877	-0.558
100	0xbd7e	-1.373
101	0xbb3e	-0.9053
102	0xb150	-0.166
103	0xb998	-0.699
104	0xbc10	-1.016
105	0x38a5	0.5806
106	0xb645	-0.3918
107	0xb22e	-0.1931
108	0xb39d	-0.2379
109	0xbbcb	-0.974
110	0xbb8c	-0.9434
111	0xb21b	-0.1908
112	0xbb7e	-0.9365
113	0xae89	-0.1021
114	0xbc1f	-1.03
115	0xbff6	-1.99
116	0x3879	0.559
117	0xbcdb	-1.214
118	0xbd37	-1.304
119	0xbda7	-1.413
120	0xbe73	-1.612
121	0x3b9d	0.9517
122	0xb612	-0.3794
123	0xbcdb	-1.214
124	0x30d4	0.1509
125	0x3e2d	1.544
126	0xc084	-2.258
127	0x3853	0.5405
128	0x331a	0.2219
129	0x3e0a	1.51
130	0xbaaf	-0.8354
131	0xbed6	-1.709
132	0x2b7e	0.05853
133	0x3a21	0.766
134	0xba87	-0.816
135	0xba65	-0.7993
136	0xbb30	-0.8984
137	0xb662	-0.399
138	0x3783	0.4695
139	0xbc43	-1.065
140	0xbc91	-1.142
141	0xbf81	-1.876
142	0x2e22	0.0958
143	0x4026	2.074
144	0xbe8b	-1.636
145	0x39f4	0.744
146	0xaffd	-0.1248
147	0xb1bb	-0.1791
148	0xbd00	-1.25
149	0xc100	-2.5
150	0x361a	0.3813
151	0xbfcb	-1.948
152	0xbe01	-1.501
153	0x397f	0.687
154	0xbc92	-1.143
155	0x35c9	0.3616
156	0xb85f	-0.5464
157	0xb9b3	-0.7124
158	0x3e6b	1.6045
159	0xbbc5	-0.971
160	0xbb10	-0.883
161	0xb438	-0.2637
162	0xbf1b	-1.776
163	0xb80a	-0.505
164	0x3931	0.649
165	0xbdb4	-1.426
166	0x3b43	0.9077
167	0xb986	-0.6904
168	0xb70b	-0.4402
169	0xb77d	-0.468
170	0xbe6a	-1.604
171	0x3550	0.332
172	0xb698	-0.412
173	0xb308	-0.2197
174	0xba61	-0.7974
175	0xbcbb	-1.183
176	0xbdc3	-1.44
177	0xbc64	-1.098
178	0xbd86	-1.381
179	0xbbe6	-0.9873
180	0x3a14	0.76
181	0xb0b0	-0.1465
182	0xbc11	-1.017
183	0x3567	0.3376
184	0x3bcf	0.976
185	0xaf0a	-0.11
186	0x369c	0.413
187	0xbbdf	-0.984
188	0xb78c	-0.4717
189	0xbb96	-0.948
190	0xba69	-0.8013
191	0x41c2	2.879

model/block_14_depthwise_BN/FusedBatchNormV3 f2 [336]
0	0xb0da	-0.1516
1	0x38c5	0.596
2	0x3a9e	0.827
3	0xacac	-0.073
4	0x2acf	0.0532
5	0xa993	-0.04355
6	0x2d15	0.0794
7	0xc13d	-2.62
8	0x40f1	2.47
9	0x3252	0.1975
10	0xb040	-0.1328
11	0x2c6b	0.06903
12	0xb76f	-0.4646
13	0x4603	6.01
14	0x44b1	4.69
15	0x9d86	-0.005394
16	0x9856	-0.002117
17	0x42d2	3.41
18	0xa90b	-0.0394
19	0xad7f	-0.0859
20	0x2b0b	0.05502
21	0xad74	-0.0852
22	0xb32a	-0.2239
23	0xad4c	-0.08276
24	0xaee0	-0.1074
25	0x4486	4.523
26	0xb953	-0.6655
27	0xbf49	-1.821
28	0xb09d	-0.1442
29	0x3638	0.3887
30	0xab6c	-0.05798
31	0xc0a4	-2.32
32	0xb429	-0.26
33	0xb5d3	-0.364
34	0x3e67	1.601
35	0xc29c	-3.305
36	0xc0f1	-2.47
37	0x383b	0.529
38	0x3245	0.1959
39	0x4064	2.195
40	0xac6f	-0.0693
41	0xc001	-2.002
42	0xa227	-0.01202
43	0x4443	4.26
44	0x409a	2.3
45	0xb7e8	-0.4941
46	0xb69e	-0.4136
47	0xb48b	-0.284
48	0x397d	0.686
49	0xb1a5	-0.1764
50	0x3d2d	1.294
51	0x91c0	-0.000702
52	0xb49c	-0.288
53	0x3d00	1.25
54	0x3f26	1.787
55	0xbc01	-1.001
56	0xacb4	-0.0735
57	0x3bbc	0.967
58	0xc2bd	-3.37
59	0xc2de	-3.434
60	0xb660	-0.3984
61	0x47fb	7.98
62	0x3d77	1.366
63	0x3b90	0.9453
64	0x417e	2.746
65	0x24a1	0.01808
66	0x4488	4.53
67	0xc33e	-3.621
68	0xa8c9	-0.03738
69	0xb74b	-0.4558
70	0x2821	0.03226
71	0x3db2	1.424
72	0xb297	-0.2059
73	0xc14d	-2.65
74	0xa8d4	-0.03772
75	0xb0b9	-0.1476
76	0xa33e	-0.014145
77	0x37ba	0.483
78	0x3349	0.2277
79	0xb4cf	-0.3005
80	0xb10c	-0.1577
81	0x35fd	0.3743
82	0x22fb	0.01363
83	0xbc3a	-1.057
84	0x25eb	0.02312
85	0x3e9f	1.655
86	0xb3af	-0.2401
87	0xbdf4	-1.488
88	0xb18a	-0.1731
89	0xa202	-0.011734
90	0x336d	0.232
91	0xbe5e	-1.592
92	0x3f05	1.755
93	0x2bb0	0.06006
94	0x3827	0.519
95	0xb0fb	-0.1556
96	0x40db	2.428
97	0xb25c	-0.1987
98	0xaa54	-0.04944
99	0x9469	-0.001077
100	0x2fce	0.12195
101	0xb3a3	-0.2386
102	0xa85f	-0.03415
103	0x29da	0.04572
104	0x483a	8.45
105	0x324f	0.1971
106	0xae7f	-0.1015
107	0xac87	-0.07074
108	0xb8aa	-0.583
109	0x3d1a	1.275
110	0xa039	-0.00825
111	0xa874	-0.0348
112	0xc184	-2.758
113	0x43b1	3.846
114	0xb06f	-0.1385
115	0x3dc2	1.439
116	0xbb6e	-0.9287
117	0xad31	-0.0811
118	0xa099	-0.00898
119	0xbc2a	-1.041
120	0x4133	2.6
121	0xb89c	-0.576
122	0x416f	2.717
123	0x3c5c	1.09
124	0xb35f	-0.2303
125	0xaa11	-0.0474
126	0x40db	2.428
127	0xa17a	-0.0107
128	0xa9f8	-0.04663
129	0x3d64	1.348
130	0xa0ba	-0.00923
131	0x9d07	-0.00491
132	0x1eb7	0.006557
133	0x942c	-0.001019
134	0xb6c4	-0.4229
135	0x3c79	1.118
136	0x4046	2.137
137	0x4200	3.0
138	0x3cbf	1.187
139	0xbccd	-1.2
140	0x3f98	1.898
141	0xbfd0	-1.953
142	0xbc79	-1.118
143	0xb121	-0.1603
144	0x3e90	1.641
145	0xc55e	-5.367
146	0xb882	-0.5635
147	0x415d	2.682
148	0xb16a	-0.1692
149	0xc00f	-2.03
150	0x42a0	3.312
151	0xab58	-0.05737
152	0x9dc0	-0.005615
153	0xb58a	-0.3462
154	0xbaa6	-0.831
155	0xb76a	-0.4634
156	0x3b8d	0.944
157	0xb9b5	-0.7134
158	0xc253	-3.162
159	0x3cdd	1.216
160	0x4098	2.297
161	0x3707	0.4392
162	0x3fc1	1.938
163	0x3d89	1.384
164	0x457e	5.492
165	0x9e07	-0.005886
166	0x1622	0.001497
167	0xb15d	-0.1676
168	0xc043	-2.13
169	0xc043	-2.13
170	0x3d16	1.271
171	0xae78	-0.1011
172	0x3718	0.4434
173	0x9922	-0.002506
174	0x3fb8	1.93
175	0x3ab4	0.838
176	0x425c	3.18
177	0xb043	-0.1332
178	0xb9d7	-0.73
179	0xad76	-0.0853
180	0xbd6b	-1.3545
181	0xc41f	-4.12
182	0xae45	-0.09796
183	0xa4b2	-0.01834
184	0xb240	-0.1953
185	0xbfd4	-1.957
186	0x3d48	1.32
187	0xb1ff	-0.1874
188	0xc69d	-6.613
189	0xb514	-0.3174
190	0x3d0c	1.262
191	0x3d8b	1.386
192	0xc1f3	-2.975
193	0x4108	2.516
194	0xa4ad	-0.01826
195	0x3c07	1.007
196	0xb766	-0.4624
197	0xac16	-0.06384
198	0xb3e4	-0.2466
199	0x3149	0.1652
200	0xbb50	-0.914
201	0x3d36	1.303
202	0x2e2a	0.0963
203	0xbb01	-0.8755
204	0x3b27	0.894
205	0x4236	3.105
206	0xac5f	-0.0683
207	0xaeb4	-0.10474
208	0x1283	0.000795
209	0xad4e	-0.0829
210	0x4003	2.006
211	0xb061	-0.1368
212	0x3c97	1.147
213	0xb47a	-0.2798
214	0xb9eb	-0.7397
215	0x3e50	1.578
216	0x2bad	0.05997
217	0xb558	-0.334
218	0x410a	2.52
219	0xc090	-2.281
220	0xba6f	-0.804
221	0x3540	0.3281
222	0x9d9f	-0.00549
223	0xbbe2	-0.9854
224	0xba5b	-0.7944
225	0x1f6c	0.007248
226	0xbf48	-1.82
227	0x3165	0.1686
228	0xb180	-0.1719
229	0x194a	0.002583
230	0xc1dc	-2.93
231	0xb494	-0.2861
232	0x4c34	16.81
233	0x31c2	0.1799
234	0xbd2b	-1.292
235	0x4009	2.018
236	0xb0ba	-0.1477
237	0x9d17	-0.00497
238	0xc5e2	-5.883
239	0xc324	-3.57
240	0xbe03	-1.503
241	0xb568	-0.338
242	0xacf1	-0.0772
243	0xba29	-0.77
244	0xb802	-0.501
245	0x353d	0.3274
246	0x41d1	2.908
247	0xb6ab	-0.4167
248	0xc238	-3.11
249	0xbc8a	-1.135
250	0x9a64	-0.00312
251	0xb0c1	-0.1486
252	0x404d	2.15
253	0x3e6a	1.604
254	0xb630	-0.3867
255	0x3658	0.3965

model/block_14_expand_BN/FusedBatchNormV3 f2 [336]
0	0x3cc0	1.1875
1	0x3b4f	0.9136
2	0x3ddf	1.468
3	0x3c96	1.146
4	0x4012	2.035
5	0x3c7b	1.12
6	0x3d83	1.378
7	0x3c32	1.049
8	0x3da6	1.412
9	0x3c2c	1.043
10	0x3d4a	1.322
11	0xbd2f	-1.296
12	0x3d9f	1.405
13	0x3fd0	1.953
14	0x3f55	1.833
15	0x38e8	0.6133
16	0x3af0	0.867
17	0xbd6d	-1.356
18	0x3c7b	1.12
19	0x3e9a	1.65
20	0x1c00	0.003906
21	0x3e17	1.522
22	0x3d18	1.273
23	0x3b18	0.8867
24	0x3de4	1.473
25	0x3ecb	1.698
26	0x3f01	1.751
27	0x3277	0.202
28	0xb2a7	-0.2079
29	0x3b73	0.931
30	0x3cbd	1.185
31	0xb60f	-0.3787
32	0x3f45	1.817
33	0x3d2e	1.295
34	0xbcc7	-1.194
35	0x396e	0.6787
36	0x35a7	0.3533
37	0xbd55	-1.333
38	0x3f0f	1.765
39	0x3f28	1.789
40	0x3f2b	1.792
41	0xafe6	-0.1234
42	0x3779	0.467
43	0x3fd2	1.955
44	0x3d05	1.255
45	0x3d84	1.379
46	0xb911	-0.6333
47	0xbd83	-1.378
48	0xbcfd	-1.247
49	0x3d68	1.352
50	0x38a8	0.582
51	0x3d77	1.366
52	0x3e7d	1.622
53	0x3fdc	1.965
54	0xbd7a	-1.369
55	0x3b6a	0.927
56	0x3e36	1.553
57	0xa73c	-0.02826
58	0xb446	-0.267
59	0x3424	0.2588
60	0x3f8d	1.888
61	0x4448	4.28
62	0x386a	0.552
63	0xbd5f	-1.343
64	0x3f84	1.879
65	0xbc48	-1.07
66	0x3f7c	1.871
67	0xb693	-0.411
68	0x3e23	1.534
69	0x36ac	0.417
70	0x3c8d	1.138
71	0xba0d	-0.7563
72	0x3e58	1.586
73	0x3d01	1.251
74	0x3ba3	0.9546
75	0x3cc5	1.192
76	0xbe4b	-1.573
77	0x3e53	1.581
78	0xb845	-0.5337
79	0x38a5	0.5806
80	0x3d24	1.285
81	0x3e01	1.501
82	0xbc5c	-1.09
83	0xba58	-0.793
84	0x3c99	1.149
85	0x3bd2	0.9775
86	0x3e6a	1.604
87	0x3b54	0.916
88	0xbd2e	-1.295
89	0x354a	0.3306
90	0x38bb	0.5913
91	0x348f	0.285
92	0x400b	2.021
93	0x3c88	1.133
94	0x2e0d	0.09454
95	0x3e76	1.615
96	0x3e16	1.521
97	0x3cc2	1.189
98	0x3d12	1.268
99	0x3c9f	1.155
100	0x3cc0	1.1875
101	0x3755	0.4583
102	0x3e63	1.597
103	0x3ccb	1.198
104	0x40c5	2.385
105	0x35e3	0.368
106	0x3d37	1.304
107	0x3dfd	1.497
108	0xbd28	-1.289
109	0x3fea	1.979
110	0xc00f	-2.03
111	0x3eb7	1.679
112	0xb4e4	-0.3057
113	0x3f57	1.835
114	0xb905	-0.6274
115	0xb5c4	-0.3604
116	0xb796	-0.474
117	0x3dbc	1.434
118	0x3463	0.2742
119	0xadcb	-0.0905
120	0xb5e0	-0.3672
121	0x3e3a	1.557
122	0x3f14	1.77
123	0x37b6	0.482
124	0x3915	0.6353
125	0x3c77	1.116
126	0xb957	-0.6675
127	0xa862	-0.03424
128	0x3dd1	1.454
129	0x31d7	0.1825
130	0xb9c4	-0.7207
131	0x3a79	0.809
132	0x38d1	0.602
133	0x3aa3	0.8296
134	0xb8a3	-0.5796
135	0x3a5a	0.794
136	0x3b11	0.8833
137	0x3df2	1.486
138	0x3068	0.1377
139	0xb533	-0.325
140	0xa995	-0.0436
141	0x3708	0.4395
142	0xb8f7	-0.6206
143	0x3c29	1.04
144	0x40af	2.342
145	0x3a02	0.751
146	0x3d6a	1.354
147	0x3ee4	1.723
148	0x3c8b	1.136
149	0x3ec5	1.692
150	0x3e5e	1.592
151	0x38a4	0.58
152	0xbb2a	-0.8955
153	0x3d48	1.32
154	0x3ec8	1.695
155	0xb29c	-0.2065
156	0x3cac	1.168
157	0xb443	-0.2664
158	0xbbdd	-0.983
159	0x38d5	0.604
160	0x40f0	2.469
161	0x3ce8	1.227
162	0x3ea4	1.66
163	0x389a	0.575
164	0x4069	2.205
165	0xb941	-0.6567
166	0x3743	0.4539
167	0x3c8e	1.139
168	0x397a	0.6846
169	0xbc8d	-1.138
170	0x3d15	1.2705
171	0x3d8b	1.386
172	0x3d90	1.391
173	0x3e28	1.539
174	0x3ec6	1.693
175	0x4087	2.264
176	0xbcef	-1.233
177	0x3dd0	1.453
178	0x3bb8	0.965
179	0x3e31	1.548
180	0x3477	0.279
181	0x2e67	0.10004
182	0x3d25	1.286
183	0x3d4a	1.322
184	0x3c3e	1.061
185	0x3755	0.4583
186	0x3e16	1.521
187	0x3cee	1.232
188	0x3517	0.318
189	0xba8f	-0.82
190	0x368f	0.41
191	0x3dff	1.499
192	0xb908	-0.629
193	0x3176	0.1707
194	0x3c1a	1.025
195	0x318e	0.1736
196	0xbc7f	-1.124
197	0x3c84	1.129
198	0xbeb8	-1.68
199	0x3d6a	1.354
200	0xb72a	-0.4478
201	0x4040	2.125
202	0x3c16	1.021
203	0x3f17	1.772
204	0x3e1c	1.527
205	0x3e3a	1.557
206	0x3d55	1.333
207	0x3e25	1.536
208	0x3c0e	1.014
209	0xb5da	-0.3657
210	0xb804	-0.502
211	0x3d51	1.329
212	0x3852	0.54
213	0x42a5	3.322
214	0xb0b4	-0.147
215	0x3d2a	1.291
216	0x3b65	0.9243
217	0x38b9	0.5903
218	0xb618	-0.3809
219	0x330b	0.2201
220	0x3e3a	1.557
221	0x3a8e	0.8193
222	0x3bee	0.991
223	0xbb9f	-0.9526
224	0x3f95	1.8955
225	0x3454	0.2705
226	0xb98c	-0.6934
227	0x3aaf	0.8354
228	0x3d24	1.285
229	0x39b1	0.7114
230	0xb318	-0.2217
231	0x3e84	1.629
232	0x418c	2.773
233	0xb91b	-0.638
234	0xbc3d	-1.06
235	0x42ae	3.34
236	0x3ded	1.481
237	0x3d17	1.272
238	0x38aa	0.583
239	0x38a7	0.5815
240	0x3bcf	0.976
241	0x3ee0	1.719
242	0x38e9	0.614
243	0x3d67	1.351
244	0xafd8	-0.12256
245	0x3da1	1.407
246	0x3931	0.649
247	0xb284	-0.2036
248	0x3802	0.501
249	0xb20e	-0.1892
250	0xb8e8	-0.6133
251	0x3e83	1.628
252	0x3cb2	1.174
253	0x3af5	0.8696
254	0xb6ba	-0.4204
255	0xb15a	-0.1672

model/block_15_depthwise_BN/FusedBatchNormV3 f2 [336]
0	0x1fb8	0.007538
1	0x3636	0.3882
2	0xbc04	-1.004
3	0xb7b0	-0.4805
4	0x433f	3.623
5	0xbf28	-1.789
6	0x4350	3.656
7	0xc077	-2.232
8	0x40d1	2.408
9	0x3e91	1.642
10	0xb24d	-0.1969
11	0x2af5	0.05435
12	0x39bd	0.7173
13	0xc515	-5.082
14	0xbac6	-0.8467
15	0xb26d	-0.2008
16	0xc447	-4.277
17	0x40df	2.436
18	0xb596	-0.349
19	0x3e33	1.55
20	0xb6d7	-0.4275
21	0x409a	2.3
22	0xbe27	-1.538
23	0xc178	-2.734
24	0x420f	3.03
25	0x4301	3.502
26	0xc5e7	-5.902
27	0xc479	-4.473
28	0x41a5	2.822
29	0xc1aa	-2.832
30	0x41bb	2.865
31	0xc525	-5.145
32	0x3409	0.2522
33	0x4056	2.168
34	0xc2fc	-3.492
35	0x3cdd	1.216
36	0xbb37	-0.902
37	0xbcf9	-1.243
38	0xc72b	-7.168
39	0xb999	-0.6997
40	0x1f0b	0.006878
41	0x4370	3.719
42	0x41af	2.842
43	0xbfa5	-1.911
44	0x3b5f	0.9214
45	0x3e66	1.6
46	0xaa32	-0.0484
47	0xbd5d	-1.341
48	0x3e90	1.641
49	0xc023	-2.068
50	0x4424	4.14
51	0x4076	2.23
52	0x41dd	2.932
53	0x417d	2.744
54	0x2092	0.00893
55	0xbd7c	-1.371
56	0xbb26	-0.8936
57	0xad53	-0.0832
58	0x3859	0.5435
59	0xbcc9	-1.196
60	0xb805	-0.5024
61	0xc086	-2.262
62	0xc10d	-2.525
63	0x43eb	3.959
64	0x33e7	0.247
65	0xa8d2	-0.03766
66	0x33bc	0.2417
67	0xc046	-2.137
68	0xb307	-0.2196
69	0xb9b7	-0.7144
70	0xc4b1	-4.69
71	0x4014	2.04
72	0xc2d7	-3.42
73	0xc081	-2.252
74	0x4253	3.162
75	0xba72	-0.8057
76	0xbec8	-1.695
77	0xc487	-4.527
78	0xa12f	-0.010124
79	0xc0aa	-2.332
80	0x3a56	0.792
81	0xc48e	-4.555
82	0x40b8	2.36
83	0x437f	3.748
84	0xae59	-0.0992
85	0xb56f	-0.3396
86	0xc9cb	-11.586
87	0x26b0	0.02612
88	0xa11f	-0.01
89	0xb85c	-0.545
90	0x25d9	0.02284
91	0xc486	-4.523
92	0xaed7	-0.1069
93	0x3fce	1.951
94	0x99e9	-0.002886
95	0xc6d6	-6.836
96	0xc02b	-2.084
97	0x41ff	2.998
98	0x3bd3	0.978
99	0xc4c2	-4.758
100	0xab28	-0.0559
101	0x3ee6	1.725
102	0xbcad	-1.169
103	0xbc55	-1.083
104	0xc116	-2.543
105	0x39d4	0.7285
106	0x42ad	3.338
107	0x46ff	6.996
108	0xbe20	-1.531
109	0x2c9f	0.0722
110	0x3eb4	1.676
111	0x3840	0.5312
112	0x418a	2.77
113	0x3e83	1.628
114	0x3e25	1.536
115	0xbf2b	-1.792
116	0x1a3c	0.003044
117	0xc312	-3.535
118	0x3b02	0.876
119	0xc2d5	-3.416
120	0xae45	-0.09796
121	0x19c1	0.00281
122	0xb12d	-0.1617
123	0xac82	-0.07043
124	0xac4e	-0.06726
125	0x42eb	3.459
126	0x4205	3.01
127	0xd0fa	-39.8
128	0xbe67	-1.601
129	0x45d6	5.836
130	0xba16	-0.7607
131	0x98f7	-0.002424
132	0x411c	2.555
133	0x3cf1	1.235
134	0xc468	-4.406
135	0xb323	-0.223
136	0xc4c4	-4.766
137	0x9cf5	-0.00484
138	0x3e01	1.501
139	0xb937	-0.652
140	0x45f9	5.973
141	0xb3b7	-0.2411
142	0xb518	-0.3184
143	0xc0c7	-2.389
144	0x3a93	0.822
145	0x3f03	1.753
146	0xc420	-4.125
147	0xbc29	-1.04
148	0xbe91	-1.642
149	0xc5d7	-5.84
150	0xae96	-0.1029
151	0xbd99	-1.399
152	0x40fe	2.496
153	0xc1bf	-2.873
154	0xc3e8	-3.953
155	0x3bdb	0.982
156	0x424b	3.146
157	0xc150	-2.656
158	0xc442	-4.258
159	0xbe03	-1.503
160	0x1cbd	0.004627
161	0xc0ca	-2.395
162	0x987c	-0.00219
163	0xb8fc	-0.623
164	0xc0cc	-2.398
165	0xb3f2	-0.2483
166	0x3c06	1.006
167	0x4199	2.799
168	0xb050	-0.1348
169	0x40ee	2.465
170	0xbc69	-1.103
171	0xb030	-0.1309
172	0xb8c6	-0.5967
173	0xc4e1	-4.88
174	0x40a4	2.32
175	0x3f7d	1.872
176	0xbcb2	-1.174
177	0xc729	-7.16
178	0xa537	-0.02037
179	0xb8ce	-0.6006
180	0x43fd	3.994
181	0x45f0	5.938
182	0xc00b	-2.021
183	0x414d	2.65
184	0xc9c9	-11.57
185	0xb1d3	-0.182
186	0xc2e7	-3.451
187	0xc03a	-2.113
188	0x3a89	0.817
189	0xc246	-3.137
190	0x3867	0.5503
191	0x445f	4.37
192	0xbcfc	-1.246
193	0x3fcb	1.948
194	0x3fc4	1.941
195	0xbad0	-0.8516
196	0x427c	3.242
197	0xbe0e	-1.514
198	0xbdc3	-1.44
199	0x2db9	0.0894
200	0xc365	-3.697
201	0xa922	-0.0401
202	0xbc00	-1.0
203	0xc196	-2.793
204	0x3bed	0.9907
205	0xbfc7	-1.944
206	0xb076	-0.1394
207	0xc157	-2.67
208	0x3225	0.192
209	0xc217	-3.045
210	0x33a4	0.2388
211	0x3cb8	1.18
212	0x3fcb	1.948
213	0x3ecb	1.698
214	0x3e0a	1.51
215	0x3b19	0.887
216	0x40b1	2.346
217	0x3b3b	0.904
218	0xb17f	-0.1718
219	0xb4c6	-0.2983
220	0x4045	2.135
221	0x3ca9	1.165
222	0xc457	-4.34
223	0xc501	-5.004
224	0x4106	2.512
225	0x4414	4.08
226	0xc2eb	-3.459
227	0x43db	3.928
228	0x4266	3.2
229	0x416c	2.71
230	0xc5a9	-5.66
231	0xbbc1	-0.969
232	0xc19c	-2.805
233	0x424a	3.145
234	0xbe53	-1.581
235	0xc283	-3.256
236	0x37b1	0.4807
237	0x3fa8	1.914
238	0xbc31	-1.048
239	0x4035	2.104
240	0x32a0	0.207
241	0x3e98	1.648
242	0x4145	2.635
243	0xc267	-3.201
244	0x3ae6	0.8623
245	0xc046	-2.137
246	0xc2fe	-3.496
247	0x4197	2.795
248	0x42ae	3.34
249	0x41dd	2.932
250	0x3f3c	1.809
251	0x34e4	0.3057
252	0xc44c	-4.297
253	0x3c04	1.004
254	0xbbbd	-0.9673
255	0xad5c	-0.08374

model/block_15_expand_BN/FusedBatchNormV3 f2 [336]
0	0x34a1	0.2893
1	0xb9bd	-0.7173
2	0xb8ee	-0.616
3	0xb9fb	-0.7476
4	0x40cf	2.404
5	0xb177	-0.1708
6	0x203d	0.00828
7	0x1d2c	0.00505
8	0xb923	-0.642
9	0x3aa0	0.828
10	0x3e3a	1.557
11	0xba2a	-0.7705
12	0xb090	-0.1426
13	0x3c23	1.034
14	0x2c1d	0.0643
15	0x3c04	1.004
16	0x3c27	1.038
17	0x3899	0.5747
18	0x3a94	0.8223
19	0x4086	2.262
20	0x3c8c	1.137
21	0xaea3	-0.1037
22	0x3a3b	0.779
23	0xbcd4	-1.207
24	0x406c	2.21
25	0xbe7e	-1.623
26	0x3b45	0.9087
27	0x390a	0.63
28	0x2c15	0.0638
29	0xb154	-0.1665
30	0x3ddf	1.468
31	0x3b70	0.9297
32	0xb637	-0.3884
33	0x38d8	0.6055
34	0xb341	-0.2267
35	0x3e8e	1.639
36	0x36cc	0.4248
37	0xb698	-0.412
38	0x3adf	0.859
39	0x3e68	1.602
40	0xa74f	-0.02855
41	0x4049	2.143
42	0x38ea	0.6143
43	0x3c57	1.085
44	0x3c24	1.035
45	0xbaae	-0.835
46	0xbc90	-1.141
47	0x3125	0.1608
48	0xb47f	-0.281
49	0x38d2	0.6025
50	0x4052	2.16
51	0x3e7c	1.621
52	0xbb96	-0.948
53	0xb038	-0.1318
54	0x3856	0.542
55	0xbafb	-0.8726
56	0x2f50	0.11426
57	0x2d4e	0.0829
58	0xbe53	-1.581
59	0xb45e	-0.273
60	0x3cb7	1.179
61	0xb648	-0.3926
62	0x3508	0.3145
63	0x3f97	1.897
64	0xb0b5	-0.1471
65	0x3f80	1.875
66	0xa8db	-0.03793
67	0x3c77	1.116
68	0xb7d8	-0.4902
69	0x3597	0.3494
70	0x3b14	0.885
71	0x396b	0.6772
72	0xbe5c	-1.59
73	0xba41	-0.7817
74	0xaf27	-0.11176
75	0x3ada	0.8564
76	0x3335	0.2252
77	0x3d10	1.266
78	0x3bdf	0.984
79	0xba70	-0.8047
80	0xb8f4	-0.619
81	0x39ad	0.7095
82	0xb4d6	-0.3022
83	0x4037	2.107
84	0x3c88	1.133
85	0x3a0d	0.7563
86	0x3c24	1.035
87	0x3b3c	0.9043
88	0x3cf8	1.242
89	0xb8bc	-0.592
90	0x3e10	1.516
91	0xab91	-0.0591
92	0x3cb5	1.177
93	0x3562	0.3364
94	0x3233	0.1937
95	0x34ba	0.2954
96	0x9b38	-0.003525
97	0x3dfc	1.496
98	0x2a4f	0.0493
99	0x3a7a	0.8096
100	0x3e88	1.633
101	0xb992	-0.6963
102	0xbbaa	-0.958
103	0xbcb6	-1.178
104	0xb4c2	-0.2974
105	0x36db	0.4285
106	0x3fad	1.919
107	0x437e	3.746
108	0xba63	-0.7983
109	0x3cf7	1.241
110	0x3e29	1.54
111	0xbf47	-1.819
112	0x3faa	1.916
113	0xb6de	-0.4292
114	0xbc4a	-1.072
115	0x2a1a	0.04767
116	0xb5e9	-0.3694
117	0x3e59	1.587
118	0x3c6a	1.104
119	0x3314	0.2212
120	0x3daf	1.421
121	0x3e42	1.564
122	0x3c7f	1.124
123	0xb692	-0.4106
124	0x3803	0.5015
125	0x3969	0.6763
126	0xba61	-0.7974
127	0x3ee6	1.725
128	0x3330	0.2246
129	0x402b	2.084
130	0x3955	0.6665
131	0xb77d	-0.468
132	0x30c1	0.1486
133	0x3c5c	1.09
134	0x3b8d	0.944
135	0x3db4	1.426
136	0x3c7d	1.122
137	0x397f	0.687
138	0x3ca3	1.159
139	0x3819	0.512
140	0x407e	2.246
141	0x3e3e	1.561
142	0xbae7	-0.863
143	0xb5f7	-0.3728
144	0xb40a	-0.2524
145	0x3665	0.3997
146	0xb090	-0.1426
147	0x3a19	0.762
148	0xb8ac	-0.584
149	0x3f52	1.83
150	0x3d71	1.36
151	0x3450	0.2695
152	0x3b9f	0.9526
153	0x38b2	0.587
154	0xb84d	-0.5376
155	0xbb56	-0.917
156	0x3560	0.336
157	0x3c6f	1.108
158	0x39ac	0.709
159	0x1c22	0.004036
160	0x379d	0.4758
161	0xb8e8	-0.6133
162	0x3d43	1.315
163	0xb820	-0.5156
164	0x329f	0.2069
165	0xb87e	-0.5615
166	0x3825	0.518
167	0x3df8	1.492
168	0x3d08	1.258
169	0xb93e	-0.6553
170	0xad57	-0.08344
171	0x3d6f	1.358
172	0x31d4	0.1821
173	0x2b1a	0.05548
174	0xbc79	-1.118
175	0x36a9	0.4163
176	0xb04f	-0.1346
177	0x4223	3.068
178	0x3e99	1.649
179	0x3cb3	1.175
180	0x40c3	2.38
181	0x4156	2.668
182	0xbcf0	-1.234
183	0xb85b	-0.5444
184	0x3ca8	1.164
185	0x3c03	1.003
186	0xb132	-0.1624
187	0xb423	-0.2585
188	0xba4a	-0.786
189	0x3603	0.3757
190	0xb1c4	-0.1802
191	0x3f4b	1.823
192	0x3194	0.1743
193	0x3d17	1.272
194	0xbc47	-1.069
195	0x32e2	0.2151
196	0x3f33	1.8
197	0xb7b2	-0.481
198	0x38b5	0.5884
199	0xbcaa	-1.166
200	0xb848	-0.535
201	0x3860	0.547
202	0xb4d2	-0.3013
203	0xbc93	-1.144
204	0x3e69	1.603
205	0xba40	-0.7812
206	0x3ce4	1.223
207	0x28b3	0.0367
208	0x366a	0.401
209	0xb919	-0.637
210	0xbdb1	-1.423
211	0xb3db	-0.2455
212	0xb542	-0.3286
213	0x3e9f	1.655
214	0x4024	2.07
215	0x39b2	0.712
216	0xc06d	-2.213
217	0x3e4f	1.577
218	0x8f2f	-0.0004385
219	0x3d53	1.331
220	0x3edc	1.715
221	0xbdb9	-1.431
222	0xb5ff	-0.3748
223	0x3cff	1.249
224	0x3cb3	1.175
225	0x3e2e	1.545
226	0xb293	-0.2054
227	0x4053	2.162
228	0x4016	2.043
229	0xb6f6	-0.435
230	0x3a58	0.793
231	0x3b15	0.8853
232	0x35c5	0.3606
233	0xba74	-0.8066
234	0xbc0a	-1.01
235	0x3a79	0.809
236	0x3bf0	0.992
237	0xa6fd	-0.0273
238	0x3cb7	1.179
239	0x1ee5	0.006733
240	0x3ea9	1.665
241	0xb8a9	-0.5825
242	0xba22	-0.7666
243	0xb9af	-0.7104
244	0xb9fd	-0.7485
245	0x3a05	0.7524
246	0xb808	-0.504
247	0x3bb8	0.965
248	0x4033	2.1
249	0xb916	-0.6357
250	0x3e5b	1.589
251	0x3f15	1.7705
252	0x337a	0.2336
253	0x39f9	0.7466
254	0x3e67	1.601
255	0x3d12	1.268
